project/model_saves/nn_models_saves/model_breast-cancer-wisconsin.pt (torch, 37131 bytes, 8 tensors)

weight f4 [518, 9]
0.31916255 -0.11208587 0.24179928 -0.2793447 -0.07881675 -0.32279232 0.0966651 -0.318571
0.19881323 0.042421103 0.10564215 0.28822684 -0.022989763 -0.17500727 -0.2202698 0.027049944
-0.25221366 -0.29958472 0.064037055 0.16563597 0.29979506 -0.15827578 0.19495633 -0.1238946
0.3288088 -0.06784488 0.25568965 -0.1181646 -0.000701193 -0.07395837 0.014121669 -0.16640301
0.088757396 0.06788812 0.16323338 -0.1231251 0.07280849 -0.1919884 0.2409269 -0.09415971
0.09478477 -0.32477733 -0.2770948 -0.1177999 0.02809447 -0.22063814 0.32816595 -0.25189087
0.20434333 0.2528665 -0.03677026 -0.33161867 -0.068972595 0.12683442 0.04423341 0.30963603
0.2811177 0.3014665 0.023987902 -0.08694877 -0.20714983 0.25440058 -0.2340858 -0.28959587
0.18397874 -0.14658152 0.11960256 0.13338237 -0.29949927 -0.051511 0.027242862 0.04953737
-0.07116243 -0.01266258 0.25601056 -0.05549405 -0.2682113 -0.030144375 0.05620733 -0.1685878
-0.16336569 0.05463844 0.16642085 0.13115463 -0.009585674 0.21425232 -0.16810513 -0.30306464
-0.13621126 0.27649266 0.20737877 0.13333635 0.19070143 0.31642124 -0.099196225 0.2359292
-0.012525058 -0.11827603 -0.024953445 -0.016375422 -0.21900022 0.24219275 -0.11649719 -0.002057962
0.2893884 -0.1745576 -0.33209828 -0.23862503 0.025572158 -0.21082942 0.18372916 0.11048096
-0.29909313 0.13849798 0.21683934 -0.043552373 -0.27467087 0.13088286 0.17548016 -0.28713676
-0.27325875 -0.06656755 0.2805342 -0.30271372 0.07026387 -0.20222557 -0.11845008 -0.09164282
0.045676675 0.115094505 -0.04558072 -0.18378235 -0.21882036 -0.2612421 -0.029424211 0.2924162
-0.32078066 0.1388757 -0.20193285 -0.32298526 0.14772129 0.20408072 0.16277616 -0.1781261
-0.26293263 -0.21969411 0.06991659 -0.11333487 -0.23434815 -0.31709725 -0.0966007 -0.17718725
0.19968441 0.011258874 -0.13114138 0.028160894 -0.14534613 0.13809615 -0.10615045 0.012736217
0.2323644 -0.18697028 0.01671837 0.308441 -0.14187634 -0.09284244 0.23865601 0.16998746
-0.034044243 -0.16955963 -0.30169684 -0.0022137044 -0.27080357 -0.057375554 0.042709433 0.12838164
0.04596265 0.0676505 0.2929938 -0.035842333 0.17052463 -0.21395433 -0.07115699 0.067352064
0.021770999 0.031255405 0.04860768 -0.020246048 0.079286285 -0.11257567 -0.110836305 0.19259864
0.31018403 -0.33228818 0.30168575 -0.18105984 -0.30084878 0.33316162 -0.045198053 -0.32136878
-0.18485348 0.09266516 0.18766786 0.211935 0.19998834 0.2821657 -0.25253502 0.20109656
0.18013632 0.27393466 -0.3010669 0.08198535 0.017963002 -0.1796603 -0.28595996 -0.10306532
0.29239193 0.31487602 0.008178263 -0.29531592 0.18181555 -0.31199142 -0.00688988 0.13723601
-0.05488152 0.18940365 0.22725418 -0.17278387 -0.033690114 0.110639 -0.021057019 -0.008566945
0.06822657 0.048797674 0.27260125 0.10432223 -0.25869897 0.068377994 0.18272655 0.08753808
0.2208544 -0.11814551 0.16732323 0.014404836 -0.15813145 -0.1741351 -0.24068646 -0.2522552
0.050785422 -0.11883255 0.13033067 -0.2564863 -0.01841342 -0.21785437 0.044811785 -0.30458748
00000000: 4669 a33e 478d e5bd 3b9a 773e 4506 8fbe
00000010: ad6a a1bd 0945 a5be 5af8 c53d bd1b a3be
00000020: b295 4b3e c0c1 2d3d e95a d83d 7892 933e
00000030: 0755 bcbc 1b35 33be 688e 61be d897 dd3c
00000040: 2622 81be 2b63 99be dc25 833d 7a9c 293e
00000050: bd7e 993e 0c13 22be a2a2 473e 74bc fdbd
00000060: a159 a83e 42f2 8abd c1e9 823e 4800 f2bd
00000070: 44d0 37ba 7c77 97bd 935e 673c 8d65 2abe
00000080: 70c6 b53d ed08 8b3d a726 273e 0329 fcbd
00000090: 9e1c 953d 9b98 44be 8bb5 763e ced6 c0bd
000000a0: 841e c23d 3749 a6be 5fdf 8dbe 1341 f1bd
000000b0: 6026 e63c f7ee 61be 5e05 a83e d7f7 80be
000000c0: 613f 513e b877 813e 6a9c 16bd ecc9 a9be
000000d0: 8141 8dbd e2e0 013e 182e 353d 9d88 9e3e
000000e0: a9ee 8f3e d159 9a3e 4782 c43c 3212 b2bd
000000f0: 161f 54be cb40 823e 30b4 6fbe e945 94be
00000100: ec64 3c3e 7719 16be 30f2 f43d 6395 083e
00000110: f857 99be 33fd 52bd 6c2c df3c b3e7 4a3d
00000120: 9cbd 91bd b676 4fbc d113 833e bb4d 63bd
00000130: fe52 89be 56f1 f6bc a839 663d 48a2 2cbe
00000140: 5649 27be 8fcc 5f3d 3a6a 2a3e 664d 063e
00000150: 3b0d 1dbc f664 5b3e c023 2cbe 4a2b 9bbe
00000160: f77a 0bbe 7290 8d3e 1a5b 543e 5389 083e
00000170: 3c47 433e f701 a23e 6427 cbbd 6d97 713e
00000180: e735 4dbc b43a f2bd 2b6b ccbc c025 86bc
00000190: 9841 60be 6001 783e 1496 eebd dfde 06bb
000001a0: b72a 943e 3abf 32be c908 aabe 1f5a 74be
000001b0: b47c d13c abe3 57be 7f23 3c3e d743 e23d
000001c0: bc22 99be 6ad2 0d3e 220b 5e3e f963 32bd
000001d0: a9a1 8cbe 2806 063e 12b1 333e 9703 93be
000001e0: 92e8 8bbe 9154 88bd 2ea2 8f3e 4bfd 9abe
000001f0: 81e6 8f3d 3814 4fbe f595 f2bd 3baf bbbd
00000200: 7717 3b3d abb6 eb3d d9b2 3abd 7131 3cbe
00000210: 7212 60be 86c1 85be 0b0b f1bc 93b7 953e
00000220: 5d3d a4be 6e35 0e3e 7cc7 4ebe 535e a5be
00000230: 4044 173e 89fa 503e cbae 263e b066 36be
00000240: 1b9f 86be 7ef7 60be 6e30 8f3d 1d1c e8bd
00000250: f6f8 6fbe 925a a2be 96d6 c5bd 9370 35be
00000260: 127a 4c3e 2477 383c ed49 06be adb1 e63c
00000270: 9ed5 14be 1469 0d3e 6865 d9bd 91ab 503c
00000280: eff0 6d3e 2375 3fbe f7f4 883c fbeb 9d3e
00000290: 0848 11be 2d24 bebd 3e62 743e 3111 2e3e
000002a0: fa71 0bbd 0aa1 2dbe 0278 9abe cc13 11bb
000002b0: c4a6 8abe a102 6bbd 16f0 2e3d 7a76 033e
000002c0: 5543 3c3d 588c 8a3d 4903 963e 69cf 12bd
000002d0: 029e 2e3e d816 5bbe c2ba 91bd e1ef 893d
000002e0: 1859 b23c ab05 003d d918 473d 0adb a5bc
000002f0: d960 a23d 138e e6bd 25fe e2bd 9438 453e
00000300: 71d0 9e3e ad21 aabe 8e76 9a3e c067 39be
00000310: da08 9abe 2994 aa3e 9821 39bd 738a a4be
00000320: 3b4a 3dbe 3bc7 bd3d 012c 403e 7d05 593e
00000330: bec9 4c3e 0678 903e 454c 81be 42ec 4d3e
00000340: a875 383e 2a41 8c3e 7125 9abe efe7 a73d
00000350: 2527 933c dff8 37be 5869 92be e913 d3bd
00000360: 65b4 953e 6e37 a13e 1ffe 053c a633 97be
00000370: db2d 3a3e 57bd 9fbe 81c4 e1bb 9987 0c3e
00000380: 72cb 60bd 08f3 413e 52b5 683e 41ee 30be
00000390: a5fe 09bd b396 e23d c57f acbc 5f5c 0cbc
000003a0: 5fba 8b3d 12e0 473d 6492 8b3e e5a6 d53d
000003b0: 3174 84be c309 8c3d ab1c 3b3e 2a47 b33d
000003c0: a827 623e 46f6 f1bd c856 2b3e 4302 6c3c
000003d0: 36ed 21be 7950 32be 8376 76be 9827 81be
000003e0: 6004 503d 7b5e f3bd 6775 053e 2c52 83be
000003f0: bed7 96bc 3715 5fbe 908c 373d e4f2 9bbe

bias f4 [518]
0.33137998 -0.07372323 -0.15105411 -0.1186479 0.0026054382 -0.3189513 -0.20305543 0.14513353
-0.27291366 0.26178852 -0.31301484 -0.30733883 0.3108454 0.13850918 0.28404662 -0.2320455
0.07148418 0.30096546 -0.20352761 0.06720862 -0.020627648 -0.24708986 -0.07308307 -0.29564556
0.24077263 0.22456649 0.18132195 -0.06614518 0.06992701 0.060630918 0.23222157 -0.28028914
0.0996128 -0.22086811 0.28353146 0.27810207 0.075196624 -0.037332654 -0.31356198 0.13298169
0.21839193 0.21647778 -0.19309819 0.2932022 0.14699599 -0.20261717 -0.18532908 -0.3322905
0.21821097 0.13013232 0.036512583 -0.08576605 -0.27756128 -0.2560802 -0.2090609 -0.027408093
0.07946184 -0.07370567 -0.020274669 -0.16552576 -0.21234238 0.16545019 0.19020918 -0.21408129
-0.27449676 0.24908438 0.11588791 0.27908495 0.22649464 0.23565724 0.23498419 -0.20547485
-0.06526193 -0.1726917 0.11111629 -0.030796796 -0.20741224 0.29097536 0.27349886 0.11583567
0.06450549 0.03335473 -0.14998302 0.2685921 0.062404126 0.18444386 -0.11844799 -0.032255173
-0.18272015 -0.27750617 -0.19794855 0.13365701 0.20275787 -0.04670322 -0.06983039 -0.0055448115
0.10940531 0.10519877 0.24277148 0.11286637 0.1855863 0.2005969 -0.1984961 0.050768465
0.0051915646 0.2611784 -0.1655951 -0.30807337 0.3159121 -0.20385763 -0.16472296 -0.16039822
0.04601109 0.13561383 0.17117766 -0.19003896 -0.14048254 -0.03395772 0.16803196 -0.26428604
-0.12356043 0.08441305 -0.095930025 0.10640788 0.09324697 0.05719289 0.24619487 0.18223515
-0.15659308 0.1871467 -0.13020802 -0.27854225 -0.075885445 -0.055277735 0.11565375 -0.22845519
0.28489003 0.10495803 0.10874987 0.028229088 -0.04660073 0.11953628 0.22977152 -0.16042733
-0.22127855 -0.18639295 -0.0935338 -0.24456653 -0.041370273 0.120646596 0.05376634 0.32367697
0.25044957 -0.08538243 0.066827685 -0.2447556 0.30047742 0.016337633 -0.116527766 0.07740864
0.0006646812 0.24561122 -0.04434693 -0.29180405 -0.14382991 0.055068612 0.2603157 0.26033947
-0.06829581 -0.1946054 -0.054486662 0.09400642 0.22077331 0.20204976 -0.063945085 -0.2993595
-0.14687347 -0.2802955 0.09608111 0.014540583 -0.22974984 0.29167166 0.3060502 0.03664151
-0.31628907 -0.20662495 0.019366652 -0.11487083 -0.22872643 0.13661858 -0.15186238 -0.1948344
0.24666801 -0.1186465 -0.1977106 -0.31057662 0.047011703 -0.066693336 -0.09921396 0.32918242
-0.08101556 0.2171084 0.06379321 0.30376664 0.26357946 -0.15646736 0.21695182 -0.1878032
-0.25825566 -0.049001336 0.20180497 -0.033747315 0.010582417 -0.26394022 0.24054268 0.30805984
-0.1210756 0.0949634 0.26384267 0.30805364 -0.31675994 -0.053189665 0.26013413 -0.08946988
0.23485437 -0.16211419 0.20626476 0.021489471 0.11006248 -0.065576226 0.29384032 -0.12781522
0.20052686 0.05898273 -0.031172425 0.27312663 0.22119811 0.085511714 -0.32375962 0.16226089
0.29845032 0.2338191 -0.04278186 -0.14971201 -0.2976628 -0.272498 0.2564583 -0.076684624
-0.2861745 -0.22295555 -0.14917254 0.011826992 0.27496126 0.13342035 -0.20768067 0.09627977
00000000: a3aa a93e 34fc 96bd eead 1abe acfd f2bd
00000010: 00c0 2a3b 964d a3be c3ed 4fbe e29d 143e
00000020: 57bb 8bbe 2509 863e 7b43 a0be 845b 9dbe
00000030: 2127 9f3e 5ad5 0d3e 8f6e 913e 569d 6dbe
00000040: 4c66 923d 2518 9a3e 8b69 50be aca4 893d
00000050: 50fb a8bc 2005 7dbe 94ac 95bd db5e 97be
00000060: 1a8d 763e c2f4 653e 76ac 393e 2077 87bd
00000070: e435 8f3d 2058 783d 7ecb 6d3e 0f82 8fbe
00000080: cc01 cc3d 402b 62be 092b 913e 6563 8e3e
00000090: b000 9a3d 20ea 18bd 328b a0be 5a2c 083e
000000a0: 22a2 5f3e 5aac 5d3e 88bb 45be 991e 963e
000000b0: 1e86 163e e07a 4fbe e8c6 3dbe fb21 aabe
000000c0: b272 5f3e 6841 053e 388e 153d 1ca6 afbd
000000d0: 831c 8ebe f21c 83be 1014 56be f086 e0bc
000000e0: e4bc a23d 00f3 96bd 1017 a6bc 967f 29be
000000f0: 4870 59be c66b 293e 32c6 423e 2038 5bbe
00000100: d78a 8cbe fa0f 7f3e a456 ed3d 39e4 8e3e
00000110: 36ee 673e 2250 713e b29f 703e 0068 52be
00000120: 0ca8 85bd 18d6 30be f090 e33d 9049 fcbc
00000130: e063 54be b9fa 943e 0b08 8c3e 403b ed3d
00000140: 741b 843d f89e 083d 2695 19be e784 893e
00000150: 789b 7f3d dade 3c3e dc94 f2bd 001e 04bd
00000160: fe1a 3bbe 4a15 8ebe 06b3 4abe 62dd 083e
00000170: c29f 4f3e e04b 3fbd 3c03 8fbd 40b1 b5bb
00000180: e40f e03d 7472 d73d 1699 783e 7c26 e73d
00000190: 560a 3e3e 4669 4d3e 9042 4bbe 98f2 4f3d
000001a0: 001e aa3b 2db9 853e c391 29be cbbb 9dbe
000001b0: 3bbf a13e 0ec0 50be 23ad 28be 6e3f 24be
000001c0: 2076 3c3d 5ade 0a3e 3249 2f3e 9399 42be
000001d0: a8da 0fbe 4017 0bbd 9210 2c3e 8050 87be
000001e0: 400d fdbd c0e0 ac3d f676 c4bd 60ec d93d
000001f0: 44f8 be3d 1843 6a3d 821a 7c3e da9b 3a3e
00000200: f059 20be 62a3 3f3e 4055 05be 179d 8ebe
00000210: d469 9bbd e86a 62bd e0db ec3d 28f0 69be
00000220: 1bdd 913e 3cf4 d63d 40b8 de3d b040 e73c
00000230: 68e0 3ebd 70cf f43d 3a49 6b3e 1047 24be
00000240: d896 62be cbdd 3ebe a68e bfbd a66f 7abe
00000250: e073 29bd 9015 f73d 183a 5c3d fdb8 a53e
00000260: ed3a 803e fcdc aebd f4dc 883d 36a1 7abe
00000270: 2dd8 993e 80d6 853c 1ca6 eebd 6c88 9e3d
00000280: 003e 2e3a 8281 7b3e 20a5 35bd 5767 95be
00000290: 2648 13be a08f 613d 1948 853e 374b 853e
000002a0: acde 8bbd a346 47be 682d 5fbd 7086 c03d
000002b0: 6612 623e 22e6 4e3e a4f5 82bd a645 99be
000002c0: 0066 16be e482 8fbe 2cc6 c43d a03b 6e3c
000002d0: 8b43 6bbe fd55 953e 9db2 9c3e 6815 163d
000002e0: a4f0 a1be 7e95 53be d0a6 9e3c 6641 ebbd
000002f0: 4337 6abe bee5 0b3e d081 1bbe ab82 47be
00000300: 8a96 7c3e f0fc f2bd a674 4abe e603 9fbe
00000310: 588f 403d 8496 88bd b030 cbbd 998a a83e
00000320: 7ceb a5bd aa51 5e3e 04a6 823d 4d87 9b3e
00000330: e3f3 863e fb38 20be 9e28 5e3e 7b4f 40be
00000340: 163a 84be a0b5 48bd f6a5 4e3e a03a 0abd
00000350: e061 2d3c 2c23 87be d250 763e 05ba 9d3e
00000360: 7cf6 f7bd 2c7c c23d 6316 873e 35b9 9d3e
00000370: 5c2e a2be 68dd 59bd 4d30 853e fc3b b7bd
00000380: aa7d 703e 4301 26be 1237 533e b00a b03c
00000390: 7068 e13d d44c 86bd 3d72 963e fee1 02be
000003a0: ea56 4d3e e097 713d 505d ffbc 41d7 8b3e
000003b0: c281 623e c420 af3d d2c3 a5be b827 263e
000003c0: 7bce 983e 466e 6f3e 083c 2fbd 1b4e 19be
000003d0: 4267 98be dc84 8bbe 814e 833e d40c 9dbd
000003e0: 7785 92be 764e 64be b0c0 18be 00c6 413c
000003f0: b9c7 8c3e 589f 083e 3eaa 54be 542e c53d

weight f4 [518]
1.0 1.0 1.0 1.0 1.0 1.0 1.0 1.0
1.0 1.0 1.0 1.0 0.99999976 1.0 1.0 1.0
1.0 1.0 1.0 0.9999997 1.0 1.0 1.0 1.0
1.0 1.0 1.0 1.0 0.9999949 1.0 1.0 1.0000002
1.0 1.0 1.0 1.0 1.0 1.0 1.0 1.0
1.0 1.0 0.9999924 1.0 1.0 1.0 0.9999998 0.99998647
1.0 0.9999999 1.0 1.0 1.0 1.0 1.0 1.0
1.0 1.0 1.0 1.0 1.0 1.0 1.0 1.0
1.0 1.0 1.0 1.0 1.0 1.0 0.9999997 1.0
1.0 1.0 1.0 1.0 1.0 1.0 1.0 1.0
1.0 1.0 0.99997485 1.0 1.0 1.0 1.0 1.0
0.999978 1.0 1.0 1.0 1.0 1.0 1.0 1.0
0.9999998 1.0 1.0 1.0 1.0 0.9999879 1.0 1.0
1.0 1.0 0.9999985 1.0 1.0 1.0 1.0 1.0
1.0 1.0 1.0 1.0 1.0 1.0 1.0 1.0
1.0 1.0 1.0 1.0 1.0 0.9999993 1.0 0.99999976
1.0 1.0 1.0 1.0 1.0 1.0 0.9999979 0.99999654
1.0 1.0 1.0 1.0 1.0 1.0 1.0 0.9999998
1.0 1.0 1.0 1.0 1.0 1.0 1.0 0.99999976
1.0 1.0 1.0 1.0 1.0 1.0 1.0 1.0000001
1.0 1.0 1.0 0.9999717 1.0 1.0 1.0 1.0
1.0 0.9999995 1.0 1.0 1.0 1.0 1.0 1.0
1.0 1.0 1.0 1.0 1.0 1.0 1.0 1.0
1.0 1.0 1.0 0.9999995 1.0 1.0 1.0 1.0
0.9999999 1.0 1.0 0.99998957 1.0 1.0 1.0 1.0
1.0 1.0 1.0 0.9999967 0.99999994 0.99999994 0.9999984 1.0
1.0 0.9999999 1.0 1.0 1.0 1.0 1.0 1.0
1.0 1.0 1.0 0.99999624 1.0 1.0 1.0 1.0
0.9999956 1.0 1.0 1.0 1.0 1.0 1.0 1.0
1.0 1.0 1.0 1.0 1.0 1.0 0.99999994 1.0
1.0 1.0 1.0 1.0 1.0 1.0 1.0 1.0
1.0 1.0 1.0 0.99999475 1.0 0.99999523 1.0 1.0
00000000: 0000 803f 0000 803f 0000 803f 0000 803f
00000010: 0000 803f 0000 803f 0000 803f 0000 803f
00000020: 0000 803f 0000 803f 0000 803f 0000 803f
00000030: fcff 7f3f 0000 803f 0000 803f 0000 803f
00000040: 0000 803f 0000 803f 0000 803f fbff 7f3f
00000050: 0000 803f 0000 803f 0000 803f 0000 803f
00000060: 0000 803f 0000 803f 0000 803f 0000 803f
00000070: aaff 7f3f 0000 803f 0000 803f 0200 803f
00000080: 0000 803f 0000 803f 0000 803f 0000 803f
00000090: 0000 803f 0000 803f 0000 803f 0000 803f
000000a0: 0000 803f 0000 803f 80ff 7f3f 0000 803f
000000b0: 0000 803f 0000 803f fdff 7f3f 1dff 7f3f
000000c0: 0000 803f feff 7f3f 0000 803f 0000 803f
000000d0: 0000 803f 0000 803f 0000 803f 0000 803f
000000e0: 0000 803f 0000 803f 0000 803f 0000 803f
000000f0: 0000 803f 0000 803f 0000 803f 0000 803f
00000100: 0000 803f 0000 803f 0000 803f 0000 803f
00000110: 0000 803f 0000 803f fbff 7f3f 0000 803f
00000120: 0000 803f 0000 803f 0000 803f 0000 803f
00000130: 0000 803f 0000 803f 0000 803f 0000 803f
00000140: 0000 803f 0000 803f 5afe 7f3f 0000 803f
00000150: 0000 803f 0000 803f 0000 803f 0000 803f
00000160: 8ffe 7f3f 0000 803f 0000 803f 0000 803f
00000170: 0000 803f 0000 803f 0000 803f 0000 803f
00000180: fdff 7f3f 0000 803f 0000 803f 0000 803f
00000190: 0000 803f 35ff 7f3f 0000 803f 0000 803f
000001a0: 0000 803f 0000 803f e7ff 7f3f 0000 803f
000001b0: 0000 803f 0000 803f 0000 803f 0000 803f
000001c0: 0000 803f 0000 803f 0000 803f 0000 803f
000001d0: 0000 803f 0000 803f 0000 803f 0000 803f
000001e0: 0000 803f 0000 803f 0000 803f 0000 803f
000001f0: 0000 803f f4ff 7f3f 0000 803f fcff 7f3f
00000200: 0000 803f 0000 803f 0000 803f 0000 803f
00000210: 0000 803f 0000 803f ddff 7f3f c6ff 7f3f
00000220: 0000 803f 0000 803f 0000 803f 0000 803f
00000230: 0000 803f 0000 803f 0000 803f fdff 7f3f
00000240: 0000 803f 0000 803f 0000 803f 0000 803f
00000250: 0000 803f 0000 803f 0000 803f fcff 7f3f
00000260: 0000 803f 0000 803f 0000 803f 0000 803f
00000270: 0000 803f 0000 803f 0000 803f 0100 803f
00000280: 0000 803f 0000 803f 0000 803f 25fe 7f3f
00000290: 0000 803f 0000 803f 0000 803f 0000 803f
000002a0: 0000 803f f8ff 7f3f 0000 803f 0000 803f
000002b0: 0000 803f 0000 803f 0000 803f 0000 803f
000002c0: 0000 803f 0000 803f 0000 803f 0000 803f
000002d0: 0000 803f 0000 803f 0000 803f 0000 803f
000002e0: 0000 803f 0000 803f 0000 803f f8ff 7f3f
000002f0: 0000 803f 0000 803f 0000 803f 0000 803f
00000300: feff 7f3f 0000 803f 0000 803f 51ff 7f3f
00000310: 0000 803f 0000 803f 0000 803f 0000 803f
00000320: 0000 803f 0000 803f 0000 803f c9ff 7f3f
00000330: ffff 7f3f ffff 7f3f e5ff 7f3f 0000 803f
00000340: 0000 803f feff 7f3f 0000 803f 0000 803f
00000350: 0000 803f 0000 803f 0000 803f 0000 803f
00000360: 0000 803f 0000 803f 0000 803f c1ff 7f3f
00000370: 0000 803f 0000 803f 0000 803f 0000 803f
00000380: b6ff 7f3f 0000 803f 0000 803f 0000 803f
00000390: 0000 803f 0000 803f 0000 803f 0000 803f
000003a0: 0000 803f 0000 803f 0000 803f 0000 803f
000003b0: 0000 803f 0000 803f ffff 7f3f 0000 803f
000003c0: 0000 803f 0000 803f 0000 803f 0000 803f
000003d0: 0000 803f 0000 803f 0000 803f 0000 803f
000003e0: 0000 803f 0000 803f 0000 803f a8ff 7f3f
000003f0: 0000 803f b0ff 7f3f 0000 803f 0000 803f

bias f4 [518]
1.8925165e-06 -5.4674047e-06 4.008302e-06 7.3120646e-06 2.7003023e-06 1.954664e-07 3.491316e-06 4.4425915e-06
-3.4039188e-06 2.0443338e-06 -9.087231e-06 -1.0649146e-06 -9.65548e-06 -6.197746e-08 1.1447924e-05 1.1756646e-06
-1.6320663e-06 3.8628104e-06 -7.389448e-06 -1.19127035e-05 -1.5369939e-06 1.4209783e-06 -4.7039634e-06 9.451454e-06
3.0025744e-06 -9.718549e-07 2.202184e-05 4.960107e-06 -1.1081124e-05 4.564408e-07 1.5369393e-06 2.0589814e-05
-1.723446e-06 9.72613e-06 1.2705545e-05 -6.4035476e-06 3.5625656e-06 1.9668027e-05 2.684608e-06 1.5525262e-05
1.5236654e-06 -1.1399253e-05 -1.3982149e-05 4.856817e-06 2.9444113e-06 -4.438874e-06 -9.786699e-06 -9.6867125e-06
-1.6998337e-06 -1.2368505e-05 -9.692481e-06 3.749232e-08 -2.3521925e-06 -1.005974e-06 3.320016e-06 8.8587126e-07
2.2164372e-06 -3.1601492e-06 -3.3191577e-06 5.734346e-06 -3.7547875e-06 1.3079266e-07 1.30782055e-05 1.0491899e-05
-4.089732e-06 1.1424856e-05 -2.7170074e-06 5.0559624e-06 -3.6738577e-06 -5.045916e-06 -1.3809249e-05 -6.5926656e-06
-2.2961628e-06 -1.9707784e-06 1.1676398e-06 -3.3953925e-06 4.7290646e-06 -2.7578496e-06 9.344892e-07 -3.32958e-06
4.6127766e-06 2.4012948e-06 -2.3498016e-05 5.360715e-06 -1.1389236e-06 -9.727884e-06 5.9217787e-06 -3.7670143e-06
-2.3722609e-05 -1.517443e-06 1.05890795e-05 -2.719098e-06 4.9739606e-06 1.7600681e-06 3.9008005e-06 -1.9006004e-06
-8.814077e-06 9.5327545e-07 4.7261656e-07 -1.1753265e-06 -2.5237237e-06 -1.7174045e-05 -9.848694e-08 9.9923345e-06
-8.920338e-07 -1.4406893e-07 -1.2733999e-05 -2.371605e-06 -2.7007163e-06 -3.7599373e-06 -1.9841926e-07 5.5644928e-06
5.026715e-06 4.064694e-06 -5.1703764e-06 -9.720433e-06 1.167678e-06 -2.3183934e-06 3.0990046e-07 -2.1158974e-06
-2.237633e-06 2.3535385e-06 3.8495336e-06 -1.1649869e-06 -7.687745e-06 -1.2151251e-05 1.6764181e-05 -6.262241e-06
8.5730727e-07 -1.9487054e-06 -8.052322e-07 -1.5869721e-06 1.4585784e-05 -1.184969e-06 -1.6017206e-05 -1.7374308e-05
-2.9223413e-06 -3.5149976e-06 2.436042e-08 8.8537445e-06 6.560463e-07 1.0450077e-06 -2.1441442e-06 4.2283386e-06
1.5573642e-05 -5.6096866e-07 -5.3184654e-06 9.08535e-07 5.519941e-06 7.880109e-06 8.729109e-06 -1.213891e-05
1.6661295e-06 1.7494613e-05 -1.0809521e-06 1.38716605e-05 -1.6926957e-06 7.3830215e-06 5.146936e-06 2.0375754e-05
-1.2519152e-05 1.1209336e-05 -4.7238885e-07 -2.5623753e-05 -6.836408e-06 1.5150964e-05 3.8512153e-06 1.9612748e-06
1.6418688e-05 -8.702957e-06 -5.3098997e-06 -5.6327644e-06 2.7379708e-06 1.29006255e-08 -1.5704138e-07 3.5949274e-06
-5.458934e-06 4.2039298e-07 -5.29128e-06 -4.0420255e-06 -4.3938985e-06 -2.472859e-06 9.622425e-06 -1.4674544e-06
8.7518936e-07 -5.9202416e-06 -4.514767e-06 -7.832928e-06 -2.816386e-07 4.132574e-06 5.9713916e-06 9.357693e-07
2.5210027e-06 -4.6431105e-06 1.4042433e-05 -2.0640517e-05 -3.8939875e-06 -1.5709944e-07 -6.640339e-06 -1.6329482e-06
1.2919153e-07 2.2966746e-05 6.1288615e-06 -6.1669557e-06 -9.949986e-06 -6.408712e-06 -1.0301234e-05 5.6166327e-06
-9.773841e-06 -1.3668424e-05 -2.885999e-06 3.0851268e-06 -4.4309995e-06 1.101671e-06 3.785391e-06 -9.421487e-06
3.9991784e-07 -5.8652427e-06 3.7706434e-07 -4.8298257e-06 7.128322e-06 -2.989623e-07 -4.476585e-06 1.645112e-06
-1.1472884e-05 4.290711e-06 1.1922205e-05 1.5120426e-06 1.3825525e-05 4.219964e-07 4.2001416e-06 9.607651e-07
-5.7468737e-06 1.5744861e-05 8.04187e-07 -1.457913e-06 -7.100976e-06 4.393988e-06 -1.0329599e-05 2.782359e-07
1.7981733e-05 -4.2117936e-06 1.0450917e-05 -2.9714577e-06 -4.1229528e-06 -2.2930576e-06 2.4879191e-06 -2.5568897e-06
-4.0008285e-06 -2.2164493e-06 -2.3257908e-06 -1.530865e-05 -1.790217e-07 -6.790757e-06 6.301639e-06 -5.5346965e-07
00000000: 5f02 fe35 a674 b7b6 0d7f 8636 285a f536
00000010: d736 3536 65e1 5134 5a4c 6a36 9211 9536
00000020: e16e 64b6 6331 0936 5c75 18b7 30ee 8eb5
00000030: f9fd 21b7 7818 85b3 7610 4037 87cb 9d35
00000040: 5f0d dbb5 4a9d 8136 e0f2 f7b6 acdc 47b7
00000050: b54a ceb5 71b8 be35 bdd6 9db6 b091 1e37
00000060: d67f 4936 ae70 82b5 8bbb b837 ff6e a636
00000070: 11e9 39b7 bf0c f534 d548 ce35 4ab8 ac37
00000080: 2751 e7b5 692d 2337 e629 5537 0ede d6b6
00000090: 6914 6f36 c4fc a437 3729 3436 3f3c 8237
000000a0: bf80 cc35 6b3f 3fb7 df94 6ab7 bef7 a236
000000b0: 9a98 4536 a3f1 94b6 8d31 24b7 1d84 22b7
000000c0: d725 e4b5 5382 4fb7 e49c 22b7 3e07 2133
000000d0: 5cda 1db6 0105 87b5 71cd 5e36 9ccc 6d35
000000e0: 1abe 1436 f312 54b6 b2be 5eb6 a869 c036
000000f0: c2fa 7bb6 0370 0c34 776a 5b37 5d06 3037
00000100: 883a 89b6 62ad 3f37 d555 36b6 63a6 a936
00000110: 658c 76b6 1750 a9b6 46ae 67b7 9136 ddb6
00000120: c717 1ab6 b741 04b6 ccb7 9c35 66dc 63b6
00000130: 5bae 9e36 7f13 39b6 9cd9 7a35 c071 5fb6
00000140: 73c7 9a36 ee25 2136 9b1d c5b7 31e0 b336
00000150: 1edd 98b5 f234 23b7 b1b3 c636 d0cc 7cb6
00000160: eaff c6b7 f2aa cbb5 c0a7 3137 bf79 36b6
00000170: ffe5 a636 7b3b ec35 9fe3 8236 2218 ffb5
00000180: 2ce0 13b7 97e4 7f35 edbb fd34 e9bf 9db5
00000190: 3e5d 29b6 fb10 90b7 c57f d3b3 c0a4 2737
000001a0: 1974 6fb5 5eb1 1ab4 1ca4 55b7 dd27 1fb6
000001b0: f43d 35b6 3b53 7cb6 120d 55b4 a1b6 ba36
000001c0: 27ab a836 7563 8836 327d adb6 f114 23b7
000001d0: 1cb9 9c35 b295 1bb6 6560 a634 d7fe 0db6
000001e0: 3e2a 16b6 7cf1 1d36 3e2b 8136 a55c 9cb5
000001f0: 9dfa 00b7 3add 4bb7 cea0 8c37 3e20 d2b6
00000200: b521 6635 81c6 02b6 2327 58b5 f2ff d4b5
00000210: 77b5 7437 3a0b 9fb5 b05c 86b7 0bbf 91b7
00000220: 711d 44b6 33e3 6bb6 2141 d132 8b8a 1437
00000230: 291b 3035 3142 8c35 1ee4 0fb6 27e1 8d36
00000240: 24a4 8237 7995 16b5 4575 b2b6 0de2 7335
00000250: ef37 b936 cf34 0437 3d73 1237 39a8 4bb7
00000260: c69f df35 65c1 9237 3b15 91b5 54ba 6837
00000270: 9530 e3b5 acbb f736 d8b3 ac36 99ec aa37
00000280: 5909 52b7 bb0f 3c37 a19c fdb4 97f2 d6b7
00000290: 4c64 e5b6 e530 7e37 b039 8136 729e 0336
000002a0: ddba 8937 ea02 12b7 b12b b2b6 1401 bdb6
000002b0: fbbd 3736 8da1 5d32 359f 28b4 6240 7136
000002c0: e32b b7b6 5fb2 e134 c08b b1b6 bca0 87b6
000002d0: 4d6f 93b6 65f3 25b6 0070 2137 59f5 c4b5
000002e0: 8eee 6a35 7da6 c6b6 8e7d 97b6 2b6a 03b7
000002f0: 1d34 97b4 8aaa 8a36 dd5d c836 9431 7b35
00000300: 7f2e 2936 04cc 9bb6 ca97 6b37 2c25 adb7
00000310: 19a9 82b6 2aaf 28b4 14d0 deb6 ac2b dbb5
00000320: e6b7 0a34 b6a8 c037 85a6 cd36 bfed ceb6
00000330: ddee 26b7 6b0a d7b6 77d3 2cb7 8276 bc36
00000340: 54fa 23b7 6f51 65b7 16ad 41b6 130a 4f36
00000350: ffad 94b6 21dd 9335 8608 7e36 fb10 1eb7
00000360: 4ab4 d634 0dce c4b6 546f ca34 e30f a2b6
00000370: d22f ef36 1181 a0b4 9335 96b6 9ecd dc35
00000380: a97b 40b7 edf8 8f36 7b05 4837 63f1 ca35
00000390: 2df4 6737 be8e e234 f1ee 8c36 a3f3 8035
000003a0: 45d5 c0b6 d513 8437 4fdf 5735 82ad c3b5
000003b0: eb44 eeb6 1270 9336 4a4d 2db7 7360 9534
000003c0: 7ad7 9637 0853 8db6 5956 2f37 4169 47b6
000003d0: e557 8ab6 6ee2 19b6 20f6 2636 0897 2bb6
000003e0: db3e 86b6 4fbe 14b6 c814 1cb6 136b 80b7
000003f0: 1c39 40b4 29dc e3b6 ab72 d336 2592 14b5

running_mean f4 [518]
0.23366764 -0.18100487 0.15596853 -0.15559204 -0.22729087 -0.3991009 0.09434898 -0.044170473
-0.3983727 0.27280858 0.0441195 -0.42309937 0.3401008 0.06429191 -0.033770833 -0.15166037
-0.45901078 0.28327963 -0.10565608 0.1410161 0.021740329 -0.28768173 0.04262503 -0.25451252
0.38323003 0.3886875 0.45254928 -0.36152115 -0.40652266 -0.10590489 -0.08186534 -0.13903765
0.1318581 -0.092163675 0.38354054 0.52300227 -0.04657964 0.15003127 -0.32469806 0.5268296
0.28231937 0.44137725 -0.11425759 0.2156813 -0.011352528 0.07113712 -0.21803974 -0.24960175
0.31029606 0.23959208 0.5879656 -0.25092456 -0.52478856 -0.6176036 -0.47628123 -0.1439663
0.029602682 -0.21721824 -0.11227628 0.18061323 -0.48944277 0.038321443 0.24976327 -0.18913272
-0.36206007 -0.24054341 0.17947578 0.43998426 0.14817248 0.22592035 0.3995433 -0.17375241
-0.12967268 -0.26284847 0.24508192 -0.26627105 -0.57252586 0.16889298 0.2940762 0.09363435
0.16274625 -0.4208992 0.11460928 0.094154805 -0.053331487 0.21194279 -0.36898577 -0.123835415
0.21055599 -0.4590769 -0.5720094 0.07331161 0.08419846 -0.11139163 -0.16934139 -0.28592157
0.07152661 0.22571935 0.16850823 0.36607638 0.36485386 0.506423 -0.28882352 0.20673162
-0.20361668 -0.0860398 -0.09366553 -0.35495436 0.580597 -0.20196328 -0.15617949 -0.11454481
0.26658508 0.12098847 0.32950762 0.22519167 0.13920292 -0.15747486 -0.087878846 -0.28164646
-0.14641596 -0.23555343 -0.02433509 -0.08786359 -0.2558143 0.21721983 0.58021384 0.067481935
-0.48756787 0.24409124 -0.4964339 -0.5511508 0.041804064 -0.03182574 0.29734188 0.14354913
-0.019908732 -0.1958182 0.18974937 -0.17263174 -0.016075624 -0.07943901 0.60362846 -0.21418655
0.034385495 -0.35511324 0.04916507 -0.39195082 -0.316742 -0.1621487 -0.3235804 0.46607253
0.15024553 0.21555847 -0.27743405 -0.11054985 0.2651367 0.041012093 0.14767085 0.23377182
0.3325906 -0.117206015 -0.061524432 0.03958731 0.057666503 0.18562554 0.6671943 0.3775759
0.09954543 -0.33646834 0.31722176 0.30310676 0.07101306 0.11713372 -0.3415602 -0.44766623
-0.2657531 -0.43881658 0.3951295 0.11574971 -0.23317407 0.39085558 0.5046485 0.16602068
-0.48667052 -0.6855579 0.03755752 -0.36522982 -0.57095206 0.21511365 -0.3518854 -0.25509375
0.2006122 -0.15651466 0.04453818 0.054729328 0.02774508 0.0062573943 -0.01531422 0.40028685
0.32237914 0.52525586 -0.3852325 0.3695664 0.35573626 -0.35435662 -0.03457752 -0.33426392
0.050299633 0.1411942 0.045749113 -0.5433699 -0.08632953 -0.59409857 0.25518408 0.66991353
-0.17035668 0.14467287 0.6287791 0.30015108 -0.3468636 0.3920412 0.09043998 -0.1542346
-0.19932646 -0.043660562 0.45245558 0.0026801866 0.20951796 0.02354442 0.18098176 -0.73479617
0.17126456 0.29679468 -0.22151725 0.099363506 0.30461246 -0.06726779 -0.059425987 0.48998606
0.53840667 0.092440166 0.10785308 -0.08823067 -0.19512784 -0.30900103 0.1299398 -0.39377108
-0.3565414 -0.3343781 -0.39964688 0.11138065 0.2465149 0.16588418 -0.067403905 -0.13917108
00000000: 9246 6f3e 5759 39be 37b6 1f3e 8553 1fbe
00000010: f0be 68be f456 ccbe 0a3a c13d 19ec 34bd
00000020: 82f7 cbbe 91ad 8b3e a6b6 343d 7ba0 d8be
00000030: b121 ae3e 7aab 833d 4953 0abd db4c 1bbe
00000040: 7603 ebbe 070a 913e 3762 d8bd 8666 103e
00000050: c618 b23c 054b 93be 9597 2e3d 774f 82be
00000060: ba36 c43e 0c02 c73e 8ab4 e73e 4d19 b9be
00000070: bd23 d0be aae4 d8bd 04a9 a7bd e35f 0ebe
00000080: cf05 073e 4fc0 bcbd 6d5f c43e 7ae3 053f
00000090: 4bca 3ebd cca1 193e d33e a6be 4ede 063f
000000a0: 2a8c 903e 33fc e13e e2ff e9bd 8fdb 5c3e
000000b0: f4ff 39bc 57b0 913d cf45 5fbe 9a97 7fbe
000000c0: 20df 9e3e a057 753e ea84 163f 2f79 80be
000000d0: 8b58 06bf 451b 1ebf 22db f3be e76b 13be
000000e0: 5381 f23c 756e 5ebe 1bf1 e5bd adf2 383e
000000f0: 3e98 fabe f2f6 1c3d f1c1 7f3e 02ac 41be
00000100: f05f b9be 0351 76be 80c8 373e 9e45 e13e
00000110: 87ba 173e aa57 673e f090 cc3e 27ec 31be
00000120: eac8 04be 1394 86be c1f6 7a3e ae54 88be
00000130: 0e91 12bf 48f2 2c3e 2891 963e 5ec3 bf3d
00000140: f4a6 263e 1a80 d7be 45b8 ea3d 3cd4 c03d
00000150: 1e72 5abd 8807 593e b4eb bcbe 6c9d fdbd
00000160: fd9b 573e 210c ebbe 356f 12bf 6624 963d
00000170: 3e70 ac3d 4b21 e4bd d467 2dbe 5064 92be
00000180: 8b7c 923d f922 673e 6c8d 2c3e 5d6e bb3e
00000190: 20ce ba3e f0a4 013f ade0 93be 74b1 533e
000001a0: e480 50be a235 b0bd b7d3 bfbd 94bc b5be
000001b0: 01a2 143f 76cf 4ebe 84ed 1fbe 7896 eabd
000001c0: d77d 883e cec8 f73d 39b5 a83e a598 663e
000001d0: 368b 0e3e 1741 21be d3f9 b3bd f733 90be
000001e0: 11ee 15be eb34 71be 625a c7bc d3f1 b3bd
000001f0: 18fa 82be e06e 5e3e e588 143f f833 8a3d
00000200: 7fa2 f9be 0ef3 793e 962c febe 3818 0dbf
00000210: bd3a 2b3d b55b 02bd 323d 983e 8bfe 123e
00000220: a317 a3bc 9184 48be a94d 423e 60c6 30be
00000230: 07b1 83bc ebb0 a2bd 6587 1a3f b853 5bbe
00000240: ced7 0c3d 67d1 b5be 5061 493d c7ad c8be
00000250: 022c a2be 4f0a 26be 55ac a5be 0fa1 ee3e
00000260: f7d9 193e 5cbb 5c3e d60b 8ebe f667 e2bd
00000270: ffbf 873e 4cfc 273d 0737 173e e161 6f3e
00000280: 5149 aa3e b509 f0bd 0b01 7cbd 4e26 223d
00000290: b633 6c3d 9f14 3e3e 3fcd 2a3f a151 c13e
000002a0: 79de cb3d 9445 acbe e46a a23e cf30 9b3e
000002b0: 4c6f 913d cee3 ef3d fbe0 aebe 8234 e5be
000002c0: ca10 88be 91ac e0be 6a4e ca3e 2f0e ed3d
000002d0: 2fc5 6ebe 391e c83e a530 013f 5301 2a3e
000002e0: e12c f9be b980 2fbf ead5 193d 67ff babe
000002f0: ea29 12bf c146 5c3e 532a b4be a69b 82be
00000300: 496d 4d3e 6145 20be ab6d 363d dc2b 603d
00000310: a649 e33c d40a cd3b 7fe8 7abc 66f2 cc3e
00000320: e10e a53e 2b77 063f 323d c5be cf37 bd3e
00000330: 1023 b63e 3b6e b5be 28a1 0dbd a424 abbe
00000340: fd06 4e3d 3695 103e 6c63 3b3d 4a1a 0bbf
00000350: 89cd b0bd d816 18bf 7da7 823e 747f 2b3f
00000360: fb71 2ebe 2025 143e abf7 203f 67ad 993e
00000370: 1b98 b1be a0b9 c83e 9938 b93d adef 1dbe
00000380: 3c1c 4cbe 6bd5 32bd 42a8 e73e 12a6 2f3b
00000390: e08b 563e 3ae0 c03c 4853 393e 9a1b 3cbf
000003a0: fa5f 2f3e 79f5 973e 6bd5 62be 187f cb3d
000003b0: 2af6 9b3e b2c3 89bd aa68 73bd 74df fa3e
000003c0: 05d5 093f 4551 bd3d 13e2 dc3d 48b2 b4bd
000003d0: 98cf 47be 6235 9ebe f00e 053e 5d9c c9be
000003e0: 988c b6be 9b33 abbe 849e ccbe 8a1b e43d
000003f0: 676e 7c3e 8bdd 293e 0f0b 8abd dd82 0ebe

running_var f4 [518]
0.043315727 0.023171976 0.06611515 0.005713679 0.0469256 0.020302605 0.08102145 0.029054625
0.015163783 0.019208604 0.08077311 0.040021338 0.020005789 0.024595585 0.05527911 0.027890582
0.13405408 0.0108234575 0.017098092 0.010561139 0.0048486255 0.043871168 0.023414418 0.023574848
0.043276764 0.014790315 0.031626556 0.0653926 0.1476131 0.024429135 0.06834165 0.034066267
0.027873311 0.030284723 0.05121731 0.045686886 0.021054866 0.033639733 0.009851115 0.099077865
0.020270824 0.03161242 0.023112854 0.027289143 0.02097945 0.06855107 0.016391542 0.017751668
0.028274868 0.018316133 0.19119243 0.035177514 0.07103415 0.0879657 0.044021748 0.025223793
0.024437746 0.017197736 0.01982428 0.08239104 0.04839292 0.023909487 0.01819542 0.012145893
0.016669448 0.13334827 0.024081225 0.02488876 0.021758312 0.015517946 0.02619173 0.028085735
0.018950725 0.028791301 0.02072494 0.041415438 0.08855624 0.015329196 0.0052509354 0.02142596
0.024201898 0.09101012 0.04308807 0.024965104 0.03931036 0.025196593 0.056022882 0.009415538
0.079792134 0.043908156 0.06738754 0.011383018 0.013033629 0.0077662608 0.021069743 0.053306233
0.016885249 0.03234434 0.018108446 0.059616387 0.03300442 0.057644874 0.02011754 0.032769192
0.059564203 0.10273142 0.01289617 0.02925729 0.04693421 0.028258163 0.014400822 0.015959853
0.038957015 0.031623058 0.017727766 0.10418593 0.0587531 0.018829286 0.044636857 0.021174915
0.013095073 0.05258167 0.019431287 0.020229904 0.070013426 0.0385153 0.066921785 0.048106942
0.04767171 0.018615983 0.06966411 0.053210154 0.025684373 0.024383366 0.03322794 0.06971363
0.085105315 0.088494815 0.012303251 0.024210948 0.011183926 0.032168567 0.121456236 0.031723514
0.029993277 0.041748255 0.024793683 0.04002339 0.046611235 0.053523093 0.07311705 0.028551392
0.03985692 0.069667995 0.071522005 0.04081984 0.016158335 0.016140165 0.07075861 0.037041668
0.048883293 0.065157376 0.018455112 0.0761723 0.033847213 0.009292392 0.10326027 0.02058199
0.037961047 0.026402531 0.06812955 0.03907366 0.06888444 0.017656451 0.058155965 0.039029144
0.02651329 0.03509725 0.07285762 0.035085984 0.016855443 0.029370412 0.043001913 0.011486343
0.017061153 0.11975167 0.0082384255 0.050178297 0.052951597 0.01990996 0.027222622 0.0084736915
0.0114315525 0.06203201 0.04074892 0.08428754 0.021155182 0.010116628 0.022487214 0.017508136
0.09262551 0.058877423 0.11683372 0.023931334 0.015691701 0.033743802 0.044126615 0.022513896
0.050277047 0.043231867 0.020233635 0.11046913 0.011217641 0.0785167 0.01995296 0.08352357
0.015250911 0.021615982 0.11681222 0.008591886 0.013005135 0.091450155 0.034654714 0.01831954
0.10183567 0.025617057 0.051466145 0.020644654 0.026781647 0.020669665 0.015655925 0.18694328
0.008547818 0.0426256 0.037736062 0.054530367 0.014478623 0.028173031 0.075786114 0.055862635
0.033611387 0.025868401 0.03077286 0.028121974 0.017932449 0.01895907 0.01867576 0.054933514
0.027365403 0.037144504 0.027726708 0.0313033 0.024137726 0.022125997 0.037561882 0.034080416
00000000: d56b 313d 28d3 bd3c 6167 873d d039 bb3b
00000010: 0f35 403d a651 a63c 93ee a53d f703 ee3c
00000020: 8471 783c 5d5b 9d3c 5f6c a53d 6aed 233d
00000030: 2ee3 a33c ae7c c93c 596c 623d ca7a e43c
00000040: 7945 093e df54 313c 4c11 8c3c a108 2d3c
00000050: 38e1 9e3b 41b2 333d 98cf bf3c 0a20 c13c
00000060: fa42 313d 1453 723c d98a 013d 8eec 853d
00000070: e327 173e 9c1f c83c b5f6 8b3d 1289 0b3d
00000080: 9256 e43c ab17 f83c 3ec9 513d 2c22 3b3d
00000090: 417b ac3c d1c9 093d 9266 213c 56e9 ca3d
000000a0: 000f a63c 067c 013d 2b57 bd3c 7b8d df3c
000000b0: 18dd ab3c 8164 8c3d 8e47 863c f26b 913c
000000c0: b2a0 e73c b70b 963c f3c7 433e 4c16 103d
000000d0: 5a7a 913d 5c27 b43d 2650 343d 21a2 ce3c
000000e0: ab31 c83c 44e2 8c3c 8766 a23c a2bc a83d
000000f0: a837 463d d4dd c33c 900e 953c 91ff 463c
00000100: 5e8e 883c 738c 083e fd45 c53c 83e3 cb3c
00000110: 7d3e b23c fc3e 7e3c 0a90 d63c 0e14 e63c
00000120: 8d3e 9b3c bcdb eb3c 59c7 a93c 3ca3 293d
00000130: f95c b53d 4f27 7b3c 0a10 ac3b 7f85 af3c
00000140: 0f43 c63c 8463 ba3d 1e7d 303d 9e83 cc3c
00000150: e603 213d 1669 ce3c 4078 653d a143 1a3c
00000160: 0f6a a33d 0ad9 333d 7b02 8a3d d77f 3a3c
00000170: 018b 553c 1e7c fe3b 749a ac3c a357 5a3d
00000180: ef52 8a3c 807b 043d 2a58 943c 5030 743d
00000190: a52f 073d 081d 6c3d 8acd a43c fd38 063d
000001a0: 98f9 733d da64 d23d 754a 533c fcac ef3c
000001b0: 163e 403d aa7d e73c 6df1 6b3c 3dbe 823c
000001c0: 6491 1f3d 2e87 013d d239 913c 6f5f d53d
000001d0: 17a7 703d e03f 9a3c 23d5 363d 0477 ad3c
000001e0: b88c 563c e15f 573d 5d2e 9f3c 2fb9 a53c
000001f0: 3363 8f3d 38c2 1d3d 4a0e 893d c90b 453d
00000200: 6943 433d 8c80 983c 0fac 8e3d e4f2 593d
00000210: 0968 d23c a0bf c73c 051a 083d 05c6 8e3d
00000220: b24b ae3d c53c b53d 9393 493c 0a56 c63c
00000230: c93c 373c 30c3 033d 0cbe f83d 84f0 013d
00000240: 76b4 f53c 3800 2b3d 1f1c cb3c 91ef 233d
00000250: 6ceb 3e3d 083b 5b3d 64be 953d 9ce4 e93c
00000260: 0241 233d 18ae 8e3d 217a 923d b432 273d
00000270: 7c5e 843c 6138 843c e4e9 903d 01b9 173d
00000280: d939 483d 3b71 853d 2d2f 973c 3900 9c3d
00000290: 60a3 0a3d 1e3f 183c 1f7a d33d 909b a83c
000002a0: 0b7d 1b3d 1f4a d83c 8187 8b3d b40b 203d
000002b0: 4913 8d3d 43a4 903c f334 6e3d 06dd 1f3d
000002c0: 6632 d93c 22c2 0f3d 6036 953d 52b6 0f3d
000002d0: 6d14 8a3c 389a f03c c622 303d 3731 3c3c
000002e0: d5c3 8b3c 5d40 f53d 76fa 063c c287 4d3d
000002f0: c6e3 583d 361a a33c fa01 df3c 3dd5 0a3c
00000300: 684b 3b3c 4715 7e3d 57e8 263d f29e ac3d
00000310: a24d ad3c 37c0 253c 1b37 b83c 396d 8f3c
00000320: 72b2 bd3d 7429 713d 8446 ef3d a50b c43c
00000330: e28b 803c f136 0a3d 1cbe 343d 106f b83c
00000340: 4eef 4d3d e613 313d 02c1 a53c a43d e23d
00000350: 32ca 373c 5dcd a03d 6474 a33c 680e ab3d
00000360: f5de 793c 0014 b13c 3f3b ef3d fbc4 0c3c
00000370: 7d13 553c 384a bb3d 1af2 0d3d dc12 963c
00000380: 388f d03d ddda d13c 2ace 523d fa1e a93c
00000390: 2f65 db3c 6e53 a93c db40 803c 0f6e 3f3e
000003a0: 260c 0c3c 2e98 2e3d 2191 1a3d 3c5b 5f3d
000003b0: bf37 6d3c 21cb e63c c035 9b3d 38d0 643d
000003c0: 18ac 093d f8e9 d33c 5d17 fc3c 0e60 e63c
000003d0: 12e7 923c 0d50 9b3c e8fd 983c f701 613d
000003e0: 692d e03c d624 183d 1f23 e33c e437 003d
000003f0: 7bbc c53c 9441 b53c 7dda 193d e897 0b3d

weight f4 [2, 518]
0.03712526 -0.016008921 -0.012600744 -0.03835847 0.037007127 -0.0046323054 -0.0010138474 0.011863722
-0.025147444 -0.005059372 0.04010939 -0.036064226 0.018839633 0.025928887 0.027053904 0.004339456
0.033295948 0.014462529 0.036861274 0.016932895 0.0018513115 0.0019781515 0.037485506 -0.02913669
-0.019209618 0.022564936 -0.03920009 -0.0018222911 -0.03516529 -0.025000779 0.035893317 -0.042928506
0.0020557814 -0.03674669 -0.044226337 0.03432278 0.0228302 -0.039731126 -0.038532596 -0.04206677
-0.015486463 0.012906656 0.025493272 0.0035741685 -0.022337692 0.012624067 0.039162073 0.03128542
-0.005993659 0.030758793 0.03639628 0.011187328 0.0241973 -0.04232832 -0.008927309 0.018085616
-0.016194528 0.038415715 0.026574954 -0.0367051 -0.0037097128 -0.024403272 -0.024350135 -0.03543787
-0.0321452 0.03932372 0.01693097 -0.026277713 -0.034817792 0.03673535 0.026661694 0.024325535
-0.03264227 0.009834773 -0.002254191 0.015880274 0.012185466 0.03268751 -0.00983127 0.021508018
-0.006176304 0.005421623 0.040094584 0.037067395 -0.02043558 0.010616235 0.0016953071 0.011429663
0.038813584 0.041359257 0.025402011 0.013738851 -0.04115478 0.031343024 0.007475086 0.03176262
0.03908625 -0.0043419353 -0.01102763 0.018846788 0.010048468 0.016179098 0.011887529 -0.0047981073
-0.01806954 0.027589113 0.028479397 0.02086286 0.010698086 0.018910866 0.0002176024 -0.004326788
-0.0359785 -0.022472894 0.03244148 0.009043761 0.0008753129 0.014589362 -0.01871968 0.035517175
0.023094611 -0.0005775144 -0.031581443 0.031513736 -0.0032195623 0.036424045 -0.03800459 -0.03884042
-0.0011305062 0.020387962 -0.032468665 -0.007848776 -0.041483898 0.01020095 0.021534603 0.040298708
0.038098767 0.027992629 -0.02079144 0.028207215 -0.024463257 0.041965898 0.0097704 0.023357807
-0.037206627 -0.0222645 0.007494978 0.02097816 0.040749054 0.03492509 0.021267194 0.02997883
-0.027456032 -0.031786658 -0.0016164283 -0.035753414 0.021689061 -0.042598065 -0.013899806 -0.03458352
0.021263642 0.024596814 -0.029638678 0.04080918 0.01713395 -0.040601805 -0.03237069 -0.013700437
-0.029432941 -0.030107453 0.021632554 -0.009796565 0.008803303 -0.0225196 0.001766986 -0.0069694286
-0.028570129 0.03241804 0.024831856 0.01570932 0.035749502 0.026536172 -0.024175072 0.016585015
-0.025712248 0.008787903 0.0426257 -0.036430042 -0.018976692 -0.010537411 0.021332292 0.012307158
0.03956258 0.032182224 -0.029694118 0.039659057 0.019366428 0.020872857 0.012866973 -0.0036112515
-0.021387588 -0.035707656 0.02777431 0.035438374 0.01978765 -0.039075278 -0.008319575 0.03870961
0.0034065421 0.04184095 -0.0021197852 -0.021991605 -0.030767722 -0.010743641 -0.039605785 0.029014545
-0.0034695622 0.016521672 0.014351312 0.030354792 -0.02305623 -0.011777627 -0.012154919 0.0019310036
-0.02745097 -0.022794532 -0.016250854 -0.018432148 -0.028967157 0.02002352 0.019625692 0.035729285
0.004481209 -0.030369991 0.026502207 -0.0073285755 0.006724964 0.037500117 0.0052344273 -0.0023511548
-0.025681416 -0.0022227846 -0.008005115 0.027214782 0.012570046 -0.008962464 0.01013581 -0.043549858
0.043069392 -0.012911931 0.034400616 0.017583117 -0.039228797 0.036819026 0.010788043 -0.043091673
00000000: a810 183d 2425 83bc 5a73 4ebc c51d 1dbd
00000010: c994 173d 98ca 97bb 13e3 84ba 0e60 423c
00000020: 0302 cebc 17c9 a5bb be49 243d 15b8 13bd
00000030: 9355 9a3c d168 d43c 26a0 dd3c ff31 8e3b
00000040: 5561 083d 3ef4 6c3c d9fb 163d dbb6 8a3c
00000050: b5a7 f23a e0a3 013b 678a 193d 11b0 eebc
00000060: 7d5d 9dbc 1ada b83c 4690 20bd f1d9 eeba
00000070: 7b09 10bd 6fce ccbc df04 133d cdd5 2fbd
00000080: 4aba 063b b283 16bd ad26 35bd 0b96 0c3d
00000090: 6606 bb3c 1bbd 22bd 5bd4 1dbd 354e 2cbd
000000a0: efba 7dbc 7076 533c 44d7 d03c 993c 6a3b
000000b0: 89fd b6bc 2dd5 4e3c 6968 203d 2425 003d
000000c0: 7566 c4bb ddf9 fb3c 4414 153d 0e4b 373c
000000d0: 6b39 c63c 7660 2dbd d943 12bc 4928 943c
000000e0: 63aa 84bc cc59 1d3d b8b3 d93c 1658 16bd
000000f0: a71e 73bb 5fe9 c7bc ef79 c7bc 4d27 11bd
00000100: afaa 03bd e911 213d d1b2 8a3c 5c44 d7bc
00000110: 1a9d 0ebd ce77 163d a069 da3c 5846 c73c
00000120: e7b3 05bd 0722 213c 0dbb 13bb 5917 823c
00000130: 8ca5 473c 57e3 053d 5613 21bc 9531 b03c
00000140: 9862 cabb dfa7 b13b 383a 243d fbd3 173d
00000150: 8468 a7bc b8ef 2d3c 1135 de3a 7b43 3b3c
00000160: fefa 1e3d 5368 293d e117 d03c eb18 613c
00000170: ea91 28bd 8b61 003d 91f1 f43b 8519 023d
00000180: e718 203d cb46 8ebb 3cad 34bc 9464 9a3c
00000190: 54a2 243c 078a 843c e9c3 423c 7139 9dbb
000001a0: 9206 94bc 9002 e23c a04d e93c 97e8 aa3c
000001b0: 0647 2f3c f6ea 9a3c 332c 6439 bac7 8dbb
000001c0: 315e 13bd 1319 b8bc 5be1 043d 482c 143c
000001d0: 4175 653a 3808 6f3c 045a 99bc 757a 113d
000001e0: e930 bd3c 5664 17ba 8b5b 01bd 8c14 013d
000001f0: 4bff 52bb 6131 153d b3aa 1bbd 2217 1fbd
00000200: 7e2d 94ba a804 a73c ddfd 04bd 2798 00bc
00000210: 05eb 29bd e321 273c 5669 b03c 4210 253d
00000220: 740d 1c3d cc50 e53c cf52 aabc d112 e73c
00000230: 2b67 c8bc 6fe4 2b3d 0714 203c df58 bf3c
00000240: fa65 18bd 0a64 b6bc 6f98 f53b 64da ab3c
00000250: 7be8 263d 9c0d 0f3d 8a38 ae3c 2a96 f53c
00000260: 79eb e0bc ba32 02bd 55de d3ba 2c72 12bd
00000270: 42ad b13c 4f7b 2ebd 03bc 63bc 73a7 0dbd
00000280: 1731 ae3c 427f c93c d0cc f2bc 8727 273d
00000290: 7f5c 8c3c 144e 26bd 2197 04bd cc77 60bc
000002a0: 5a1d f1bc e8a3 f6bc c136 b13c c681 20bc
000002b0: bb3b 103c 067b b8bc 369a e73a ce5f e4bb
000002c0: e70b eabc c7c8 043d 2d6c cb3c d5b0 803c
000002d0: 126e 123d 6362 d93c cd0a c6bc 4cdd 873c
000002e0: 7ea2 d2bc 23fb 0f3c 4998 2e3d ab37 15bd
000002f0: 0275 9bbc 1ba5 2cbc 0fc1 ae3c f6a3 493c
00000300: 5f0c 223d 82d1 033d 1441 f3bc 8971 223d
00000310: 58a6 9e3c 8efd aa3c ffcf 523c bfaa 6cbb
00000320: 0635 afbc 3142 12bd f386 e33c d427 113d
00000330: b619 a23c 660d 20bd d44e 08bc f88d 1e3d
00000340: 4b40 5f3b 6a61 2b3d 18ec 0abb bd27 b4bc
00000350: 970c fcbc 1906 30bc ad39 22bd e9af ed3c
00000360: 9861 63bb 7558 873c c421 6b3c 9daa f83c
00000370: 6be0 bcbc f3f6 40bc 6d25 47bc bb19 fd3a
00000380: dbe0 e0bc 99bb babc 8320 85bc 04ff 96bc
00000390: 884c edbc 5d08 a43c 0fc6 a03c df58 123d
000003a0: 1bd7 923b 7dca f8bc 281b d93c 8c24 f0bb
000003b0: 165d dc3b b999 193d 8f85 ab3b d515 1abb
000003c0: d561 d2bc 23ac 11bb e327 03bc 89f1 de3c
000003d0: 98f2 4d3c 4cd7 12bc ab10 263c 5661 32bd
000003e0: 8869 303d 908c 53bc a9e7 0c3d 780a 903c
000003f0: 60ae 20bd 8ccf 163d 55c0 303c e580 30bd

bias f4 [2]
-0.028126286 -0.02795864
00000000: 1969 e6bc 8509 e5bc
